2026-07-08 12:41:08 [/home/computergeek/TinyU-Net/libs/trainer_unet_tse_steplr_clip.py:227 - INFO ] Create optimizer adamw: {'lr': 0.0005, 'weight_decay': 1e-05}
2026-07-08 12:41:19 [/home/computergeek/TinyU-Net/libs/trainer_unet_tse_steplr_clip.py:180 - INFO ] Model summary:
TinyPSE(
  (stft): ConvSTFT()
  (softmax): Softmax(dim=-2)
  (ifi): IFI(
    (constructive_lens): Sequential(
      (0): Conv2d(2, 64, kernel_size=(1, 1), stride=(1, 1), bias=False)
      (1): BatchNorm2d(64, eps=1e-05, momentum=0.1, affine=True, bias=True, track_running_stats=True)
      (2): ReLU(inplace=True)
      (3): Conv2d(64, 2, kernel_size=(1, 1), stride=(1, 1), bias=False)
      (4): BatchNorm2d(2, eps=1e-05, momentum=0.1, affine=True, bias=True, track_running_stats=True)
    )
    (destructive_lens): Sequential(
      (0): SelfAttentivePooling2d(
        (attn_conv): Conv2d(2, 1, kernel_size=(1, 1), stride=(1, 1))
        (softmax): Softmax(dim=-1)
      )
      (1): Conv2d(2, 64, kernel_size=(1, 1), stride=(1, 1), bias=False)
      (2): BatchNorm2d(64, eps=1e-05, momentum=0.1, affine=True, bias=True, track_running_stats=True)
      (3): ReLU(inplace=True)
      (4): Conv2d(64, 2, kernel_size=(1, 1), stride=(1, 1), bias=False)
      (5): BatchNorm2d(2, eps=1e-05, momentum=0.1, affine=True, bias=True, track_running_stats=True)
    )
    (phase_gate): Sigmoid()
  )
  (upconv1): Conv2d(4, 64, kernel_size=(1, 1), stride=(1, 1))
  (lca): LCA(
    (local_att): Sequential(
      (0): Conv2d(64, 16, kernel_size=(1, 1), stride=(1, 1), bias=False)
      (1): BatchNorm2d(16, eps=1e-05, momentum=0.1, affine=True, bias=True, track_running_stats=True)
      (2): ReLU(inplace=True)
      (3): Conv2d(16, 64, kernel_size=(1, 1), stride=(1, 1), bias=False)
      (4): BatchNorm2d(64, eps=1e-05, momentum=0.1, affine=True, bias=True, track_running_stats=True)
    )
    (global_att): Sequential(
      (0): SelfAttentivePooling2d(
        (attn_conv): Conv2d(64, 1, kernel_size=(1, 1), stride=(1, 1))
        (softmax): Softmax(dim=-1)
      )
      (1): Conv2d(64, 16, kernel_size=(1, 1), stride=(1, 1), bias=False)
      (2): BatchNorm2d(16, eps=1e-05, momentum=0.1, affine=True, bias=True, track_running_stats=True)
      (3): ReLU(inplace=True)
      (4): Conv2d(16, 64, kernel_size=(1, 1), stride=(1, 1), bias=False)
      (5): BatchNorm2d(64, eps=1e-05, momentum=0.1, affine=True, bias=True, track_running_stats=True)
    )
    (sigmoid): Sigmoid()
  )
  (conv2d): Conv2d(64, 16, kernel_size=(3, 1), stride=(1, 1), padding=(1, 0))
  (relu): ReLU()
  (encoder1): UNetEncoder(
    (cmrf): CMRF(
      (pwconv1): Conv(
        (conv): Conv2d(16, 8, kernel_size=(1, 1), stride=(1, 1), bias=False)
        (bn): BatchNorm2d(8, eps=1e-05, momentum=0.1, affine=True, bias=True, track_running_stats=True)
        (act): GELU(approximate='none')
      )
      (pwconv2): Conv(
        (conv): Conv2d(32, 64, kernel_size=(1, 1), stride=(1, 1), bias=False)
        (bn): BatchNorm2d(64, eps=1e-05, momentum=0.1, affine=True, bias=True, track_running_stats=True)
        (act): GELU(approximate='none')
      )
      (m): ModuleList(
        (0): SpeechDWConv(
          (conv_f): Conv2d(4, 4, kernel_size=(3, 1), stride=(1, 1), padding=(1, 0), groups=4, bias=False)
          (conv_t): Conv2d(4, 4, kernel_size=(1, 3), stride=(1, 1), padding=(0, 1), groups=4, bias=False)
          (bn): BatchNorm2d(4, eps=1e-05, momentum=0.1, affine=True, bias=True, track_running_stats=True)
          (act): Identity()
        )
        (1): SpeechDWConv(
          (conv_f): Conv2d(4, 4, kernel_size=(3, 1), stride=(1, 1), padding=(1, 0), groups=4, bias=False)
          (conv_t): Conv2d(4, 4, kernel_size=(1, 3), stride=(1, 1), padding=(0, 2), dilation=(1, 2), groups=4, bias=False)
          (bn): BatchNorm2d(4, eps=1e-05, momentum=0.1, affine=True, bias=True, track_running_stats=True)
          (act): Identity()
        )
        (2): SpeechDWConv(
          (conv_f): Conv2d(4, 4, kernel_size=(3, 1), stride=(1, 1), padding=(1, 0), groups=4, bias=False)
          (conv_t): Conv2d(4, 4, kernel_size=(1, 3), stride=(1, 1), padding=(0, 4), dilation=(1, 4), groups=4, bias=False)
          (bn): BatchNorm2d(4, eps=1e-05, momentum=0.1, affine=True, bias=True, track_running_stats=True)
          (act): Identity()
        )
        (3): SpeechDWConv(
          (conv_f): Conv2d(4, 4, kernel_size=(3, 1), stride=(1, 1), padding=(1, 0), groups=4, bias=False)
          (conv_t): Conv2d(4, 4, kernel_size=(1, 3), stride=(1, 1), padding=(0, 8), dilation=(1, 8), groups=4, bias=False)
          (bn): BatchNorm2d(4, eps=1e-05, momentum=0.1, affine=True, bias=True, track_running_stats=True)
          (act): Identity()
        )
        (4): SpeechDWConv(
          (conv_f): Conv2d(4, 4, kernel_size=(3, 1), stride=(1, 1), padding=(1, 0), groups=4, bias=False)
          (conv_t): Conv2d(4, 4, kernel_size=(1, 3), stride=(1, 1), padding=(0, 16), dilation=(1, 16), groups=4, bias=False)
          (bn): BatchNorm2d(4, eps=1e-05, momentum=0.1, affine=True, bias=True, track_running_stats=True)
          (act): Identity()
        )
        (5): SpeechDWConv(
          (conv_f): Conv2d(4, 4, kernel_size=(3, 1), stride=(1, 1), padding=(1, 0), groups=4, bias=False)
          (conv_t): Conv2d(4, 4, kernel_size=(1, 3), stride=(1, 1), padding=(0, 32), dilation=(1, 32), groups=4, bias=False)
          (bn): BatchNorm2d(4, eps=1e-05, momentum=0.1, affine=True, bias=True, track_running_stats=True)
          (act): Identity()
        )
        (6): SpeechDWConv(
          (conv_f): Conv2d(4, 4, kernel_size=(3, 1), stride=(1, 1), padding=(1, 0), groups=4, bias=False)
          (conv_t): Conv2d(4, 4, kernel_size=(1, 3), stride=(1, 1), padding=(0, 64), dilation=(1, 64), groups=4, bias=False)
          (bn): BatchNorm2d(4, eps=1e-05, momentum=0.1, affine=True, bias=True, track_running_stats=True)
          (act): Identity()
        )
      )
    )
    (downsample): MaxPool2d(kernel_size=2, stride=2, padding=0, dilation=1, ceil_mode=False)
  )
  (encoder2): UNetEncoder(
    (cmrf): CMRF(
      (pwconv1): Conv(
        (conv): Conv2d(64, 16, kernel_size=(1, 1), stride=(1, 1), bias=False)
        (bn): BatchNorm2d(16, eps=1e-05, momentum=0.1, affine=True, bias=True, track_running_stats=True)
        (act): GELU(approximate='none')
      )
      (pwconv2): Conv(
        (conv): Conv2d(64, 128, kernel_size=(1, 1), stride=(1, 1), bias=False)
        (bn): BatchNorm2d(128, eps=1e-05, momentum=0.1, affine=True, bias=True, track_running_stats=True)
        (act): GELU(approximate='none')
      )
      (m): ModuleList(
        (0): SpeechDWConv(
          (conv_f): Conv2d(8, 8, kernel_size=(3, 1), stride=(1, 1), padding=(1, 0), groups=8, bias=False)
          (conv_t): Conv2d(8, 8, kernel_size=(1, 3), stride=(1, 1), padding=(0, 1), groups=8, bias=False)
          (bn): BatchNorm2d(8, eps=1e-05, momentum=0.1, affine=True, bias=True, track_running_stats=True)
          (act): Identity()
        )
        (1): SpeechDWConv(
          (conv_f): Conv2d(8, 8, kernel_size=(3, 1), stride=(1, 1), padding=(1, 0), groups=8, bias=False)
          (conv_t): Conv2d(8, 8, kernel_size=(1, 3), stride=(1, 1), padding=(0, 2), dilation=(1, 2), groups=8, bias=False)
          (bn): BatchNorm2d(8, eps=1e-05, momentum=0.1, affine=True, bias=True, track_running_stats=True)
          (act): Identity()
        )
        (2): SpeechDWConv(
          (conv_f): Conv2d(8, 8, kernel_size=(3, 1), stride=(1, 1), padding=(1, 0), groups=8, bias=False)
          (conv_t): Conv2d(8, 8, kernel_size=(1, 3), stride=(1, 1), padding=(0, 4), dilation=(1, 4), groups=8, bias=False)
          (bn): BatchNorm2d(8, eps=1e-05, momentum=0.1, affine=True, bias=True, track_running_stats=True)
          (act): Identity()
        )
        (3): SpeechDWConv(
          (conv_f): Conv2d(8, 8, kernel_size=(3, 1), stride=(1, 1), padding=(1, 0), groups=8, bias=False)
          (conv_t): Conv2d(8, 8, kernel_size=(1, 3), stride=(1, 1), padding=(0, 8), dilation=(1, 8), groups=8, bias=False)
          (bn): BatchNorm2d(8, eps=1e-05, momentum=0.1, affine=True, bias=True, track_running_stats=True)
          (act): Identity()
        )
        (4): SpeechDWConv(
          (conv_f): Conv2d(8, 8, kernel_size=(3, 1), stride=(1, 1), padding=(1, 0), groups=8, bias=False)
          (conv_t): Conv2d(8, 8, kernel_size=(1, 3), stride=(1, 1), padding=(0, 16), dilation=(1, 16), groups=8, bias=False)
          (bn): BatchNorm2d(8, eps=1e-05, momentum=0.1, affine=True, bias=True, track_running_stats=True)
          (act): Identity()
        )
        (5): SpeechDWConv(
          (conv_f): Conv2d(8, 8, kernel_size=(3, 1), stride=(1, 1), padding=(1, 0), groups=8, bias=False)
          (conv_t): Conv2d(8, 8, kernel_size=(1, 3), stride=(1, 1), padding=(0, 32), dilation=(1, 32), groups=8, bias=False)
          (bn): BatchNorm2d(8, eps=1e-05, momentum=0.1, affine=True, bias=True, track_running_stats=True)
          (act): Identity()
        )
        (6): SpeechDWConv(
          (conv_f): Conv2d(8, 8, kernel_size=(3, 1), stride=(1, 1), padding=(1, 0), groups=8, bias=False)
          (conv_t): Conv2d(8, 8, kernel_size=(1, 3), stride=(1, 1), padding=(0, 64), dilation=(1, 64), groups=8, bias=False)
          (bn): BatchNorm2d(8, eps=1e-05, momentum=0.1, affine=True, bias=True, track_running_stats=True)
          (act): Identity()
        )
      )
    )
    (downsample): MaxPool2d(kernel_size=2, stride=2, padding=0, dilation=1, ceil_mode=False)
  )
  (encoder3): UNetEncoder(
    (cmrf): CMRF(
      (pwconv1): Conv(
        (conv): Conv2d(128, 32, kernel_size=(1, 1), stride=(1, 1), bias=False)
        (bn): BatchNorm2d(32, eps=1e-05, momentum=0.1, affine=True, bias=True, track_running_stats=True)
        (act): GELU(approximate='none')
      )
      (pwconv2): Conv(
        (conv): Conv2d(128, 256, kernel_size=(1, 1), stride=(1, 1), bias=False)
        (bn): BatchNorm2d(256, eps=1e-05, momentum=0.1, affine=True, bias=True, track_running_stats=True)
        (act): GELU(approximate='none')
      )
      (m): ModuleList(
        (0): SpeechDWConv(
          (conv_f): Conv2d(16, 16, kernel_size=(3, 1), stride=(1, 1), padding=(1, 0), groups=16, bias=False)
          (conv_t): Conv2d(16, 16, kernel_size=(1, 3), stride=(1, 1), padding=(0, 1), groups=16, bias=False)
          (bn): BatchNorm2d(16, eps=1e-05, momentum=0.1, affine=True, bias=True, track_running_stats=True)
          (act): Identity()
        )
        (1): SpeechDWConv(
          (conv_f): Conv2d(16, 16, kernel_size=(3, 1), stride=(1, 1), padding=(1, 0), groups=16, bias=False)
          (conv_t): Conv2d(16, 16, kernel_size=(1, 3), stride=(1, 1), padding=(0, 2), dilation=(1, 2), groups=16, bias=False)
          (bn): BatchNorm2d(16, eps=1e-05, momentum=0.1, affine=True, bias=True, track_running_stats=True)
          (act): Identity()
        )
        (2): SpeechDWConv(
          (conv_f): Conv2d(16, 16, kernel_size=(3, 1), stride=(1, 1), padding=(1, 0), groups=16, bias=False)
          (conv_t): Conv2d(16, 16, kernel_size=(1, 3), stride=(1, 1), padding=(0, 4), dilation=(1, 4), groups=16, bias=False)
          (bn): BatchNorm2d(16, eps=1e-05, momentum=0.1, affine=True, bias=True, track_running_stats=True)
          (act): Identity()
        )
        (3): SpeechDWConv(
          (conv_f): Conv2d(16, 16, kernel_size=(3, 1), stride=(1, 1), padding=(1, 0), groups=16, bias=False)
          (conv_t): Conv2d(16, 16, kernel_size=(1, 3), stride=(1, 1), padding=(0, 8), dilation=(1, 8), groups=16, bias=False)
          (bn): BatchNorm2d(16, eps=1e-05, momentum=0.1, affine=True, bias=True, track_running_stats=True)
          (act): Identity()
        )
        (4): SpeechDWConv(
          (conv_f): Conv2d(16, 16, kernel_size=(3, 1), stride=(1, 1), padding=(1, 0), groups=16, bias=False)
          (conv_t): Conv2d(16, 16, kernel_size=(1, 3), stride=(1, 1), padding=(0, 16), dilation=(1, 16), groups=16, bias=False)
          (bn): BatchNorm2d(16, eps=1e-05, momentum=0.1, affine=True, bias=True, track_running_stats=True)
          (act): Identity()
        )
        (5): SpeechDWConv(
          (conv_f): Conv2d(16, 16, kernel_size=(3, 1), stride=(1, 1), padding=(1, 0), groups=16, bias=False)
          (conv_t): Conv2d(16, 16, kernel_size=(1, 3), stride=(1, 1), padding=(0, 32), dilation=(1, 32), groups=16, bias=False)
          (bn): BatchNorm2d(16, eps=1e-05, momentum=0.1, affine=True, bias=True, track_running_stats=True)
          (act): Identity()
        )
        (6): SpeechDWConv(
          (conv_f): Conv2d(16, 16, kernel_size=(3, 1), stride=(1, 1), padding=(1, 0), groups=16, bias=False)
          (conv_t): Conv2d(16, 16, kernel_size=(1, 3), stride=(1, 1), padding=(0, 64), dilation=(1, 64), groups=16, bias=False)
          (bn): BatchNorm2d(16, eps=1e-05, momentum=0.1, affine=True, bias=True, track_running_stats=True)
          (act): Identity()
        )
      )
    )
    (downsample): MaxPool2d(kernel_size=2, stride=2, padding=0, dilation=1, ceil_mode=False)
  )
  (encoder4): UNetEncoder(
    (cmrf): CMRF(
      (pwconv1): Conv(
        (conv): Conv2d(256, 64, kernel_size=(1, 1), stride=(1, 1), bias=False)
        (bn): BatchNorm2d(64, eps=1e-05, momentum=0.1, affine=True, bias=True, track_running_stats=True)
        (act): GELU(approximate='none')
      )
      (pwconv2): Conv(
        (conv): Conv2d(256, 512, kernel_size=(1, 1), stride=(1, 1), bias=False)
        (bn): BatchNorm2d(512, eps=1e-05, momentum=0.1, affine=True, bias=True, track_running_stats=True)
        (act): GELU(approximate='none')
      )
      (m): ModuleList(
        (0): SpeechDWConv(
          (conv_f): Conv2d(32, 32, kernel_size=(3, 1), stride=(1, 1), padding=(1, 0), groups=32, bias=False)
          (conv_t): Conv2d(32, 32, kernel_size=(1, 3), stride=(1, 1), padding=(0, 1), groups=32, bias=False)
          (bn): BatchNorm2d(32, eps=1e-05, momentum=0.1, affine=True, bias=True, track_running_stats=True)
          (act): Identity()
        )
        (1): SpeechDWConv(
          (conv_f): Conv2d(32, 32, kernel_size=(3, 1), stride=(1, 1), padding=(1, 0), groups=32, bias=False)
          (conv_t): Conv2d(32, 32, kernel_size=(1, 3), stride=(1, 1), padding=(0, 2), dilation=(1, 2), groups=32, bias=False)
          (bn): BatchNorm2d(32, eps=1e-05, momentum=0.1, affine=True, bias=True, track_running_stats=True)
          (act): Identity()
        )
        (2): SpeechDWConv(
          (conv_f): Conv2d(32, 32, kernel_size=(3, 1), stride=(1, 1), padding=(1, 0), groups=32, bias=False)
          (conv_t): Conv2d(32, 32, kernel_size=(1, 3), stride=(1, 1), padding=(0, 4), dilation=(1, 4), groups=32, bias=False)
          (bn): BatchNorm2d(32, eps=1e-05, momentum=0.1, affine=True, bias=True, track_running_stats=True)
          (act): Identity()
        )
        (3): SpeechDWConv(
          (conv_f): Conv2d(32, 32, kernel_size=(3, 1), stride=(1, 1), padding=(1, 0), groups=32, bias=False)
          (conv_t): Conv2d(32, 32, kernel_size=(1, 3), stride=(1, 1), padding=(0, 8), dilation=(1, 8), groups=32, bias=False)
          (bn): BatchNorm2d(32, eps=1e-05, momentum=0.1, affine=True, bias=True, track_running_stats=True)
          (act): Identity()
        )
        (4): SpeechDWConv(
          (conv_f): Conv2d(32, 32, kernel_size=(3, 1), stride=(1, 1), padding=(1, 0), groups=32, bias=False)
          (conv_t): Conv2d(32, 32, kernel_size=(1, 3), stride=(1, 1), padding=(0, 16), dilation=(1, 16), groups=32, bias=False)
          (bn): BatchNorm2d(32, eps=1e-05, momentum=0.1, affine=True, bias=True, track_running_stats=True)
          (act): Identity()
        )
        (5): SpeechDWConv(
          (conv_f): Conv2d(32, 32, kernel_size=(3, 1), stride=(1, 1), padding=(1, 0), groups=32, bias=False)
          (conv_t): Conv2d(32, 32, kernel_size=(1, 3), stride=(1, 1), padding=(0, 32), dilation=(1, 32), groups=32, bias=False)
          (bn): BatchNorm2d(32, eps=1e-05, momentum=0.1, affine=True, bias=True, track_running_stats=True)
          (act): Identity()
        )
        (6): SpeechDWConv(
          (conv_f): Conv2d(32, 32, kernel_size=(3, 1), stride=(1, 1), padding=(1, 0), groups=32, bias=False)
          (conv_t): Conv2d(32, 32, kernel_size=(1, 3), stride=(1, 1), padding=(0, 64), dilation=(1, 64), groups=32, bias=False)
          (bn): BatchNorm2d(32, eps=1e-05, momentum=0.1, affine=True, bias=True, track_running_stats=True)
          (act): Identity()
        )
      )
    )
    (downsample): MaxPool2d(kernel_size=2, stride=2, padding=0, dilation=1, ceil_mode=False)
  )
  (proj): Conv2d(512, 64, kernel_size=(1, 1), stride=(1, 1))
  (tcn_layers): Sequential(
    (0): Sequential(
      (0): TCNBlock(
        (norm1): InstanceNorm2d(64, eps=1e-05, momentum=0.1, affine=False, bias=False, track_running_stats=False)
        (elu1): ELU(alpha=1.0)
        (dconv1): Conv2d(64, 64, kernel_size=(1, 3), stride=(1, 1), padding=(0, 1), groups=64)
        (norm2): InstanceNorm2d(64, eps=1e-05, momentum=0.1, affine=False, bias=False, track_running_stats=False)
        (elu2): ELU(alpha=1.0)
        (dconv2): Conv2d(64, 64, kernel_size=(1, 1), stride=(1, 1))
      )
      (1): TCNBlock(
        (norm1): InstanceNorm2d(64, eps=1e-05, momentum=0.1, affine=False, bias=False, track_running_stats=False)
        (elu1): ELU(alpha=1.0)
        (dconv1): Conv2d(64, 64, kernel_size=(1, 3), stride=(1, 1), padding=(0, 2), dilation=(1, 2), groups=64)
        (norm2): InstanceNorm2d(64, eps=1e-05, momentum=0.1, affine=False, bias=False, track_running_stats=False)
        (elu2): ELU(alpha=1.0)
        (dconv2): Conv2d(64, 64, kernel_size=(1, 1), stride=(1, 1))
      )
      (2): TCNBlock(
        (norm1): InstanceNorm2d(64, eps=1e-05, momentum=0.1, affine=False, bias=False, track_running_stats=False)
        (elu1): ELU(alpha=1.0)
        (dconv1): Conv2d(64, 64, kernel_size=(1, 3), stride=(1, 1), padding=(0, 4), dilation=(1, 4), groups=64)
        (norm2): InstanceNorm2d(64, eps=1e-05, momentum=0.1, affine=False, bias=False, track_running_stats=False)
        (elu2): ELU(alpha=1.0)
        (dconv2): Conv2d(64, 64, kernel_size=(1, 1), stride=(1, 1))
      )
      (3): TCNBlock(
        (norm1): InstanceNorm2d(64, eps=1e-05, momentum=0.1, affine=False, bias=False, track_running_stats=False)
        (elu1): ELU(alpha=1.0)
        (dconv1): Conv2d(64, 64, kernel_size=(1, 3), stride=(1, 1), padding=(0, 8), dilation=(1, 8), groups=64)
        (norm2): InstanceNorm2d(64, eps=1e-05, momentum=0.1, affine=False, bias=False, track_running_stats=False)
        (elu2): ELU(alpha=1.0)
        (dconv2): Conv2d(64, 64, kernel_size=(1, 1), stride=(1, 1))
      )
      (4): TCNBlock(
        (norm1): InstanceNorm2d(64, eps=1e-05, momentum=0.1, affine=False, bias=False, track_running_stats=False)
        (elu1): ELU(alpha=1.0)
        (dconv1): Conv2d(64, 64, kernel_size=(1, 3), stride=(1, 1), padding=(0, 16), dilation=(1, 16), groups=64)
        (norm2): InstanceNorm2d(64, eps=1e-05, momentum=0.1, affine=False, bias=False, track_running_stats=False)
        (elu2): ELU(alpha=1.0)
        (dconv2): Conv2d(64, 64, kernel_size=(1, 1), stride=(1, 1))
      )
    )
  )
  (proj_back): Conv2d(64, 512, kernel_size=(1, 1), stride=(1, 1))
  (decoder4): UNetDecoder(
    (cmrf): CMRF(
      (pwconv1): Conv(
        (conv): Conv2d(1024, 64, kernel_size=(1, 1), stride=(1, 1), bias=False)
        (bn): BatchNorm2d(64, eps=1e-05, momentum=0.1, affine=True, bias=True, track_running_stats=True)
        (act): GELU(approximate='none')
      )
      (pwconv2): Conv(
        (conv): Conv2d(256, 512, kernel_size=(1, 1), stride=(1, 1), bias=False)
        (bn): BatchNorm2d(512, eps=1e-05, momentum=0.1, affine=True, bias=True, track_running_stats=True)
        (act): GELU(approximate='none')
      )
      (m): ModuleList(
        (0): SpeechDWConv(
          (conv_f): Conv2d(32, 32, kernel_size=(3, 1), stride=(1, 1), padding=(1, 0), groups=32, bias=False)
          (conv_t): Conv2d(32, 32, kernel_size=(1, 3), stride=(1, 1), padding=(0, 1), groups=32, bias=False)
          (bn): BatchNorm2d(32, eps=1e-05, momentum=0.1, affine=True, bias=True, track_running_stats=True)
          (act): Identity()
        )
        (1): SpeechDWConv(
          (conv_f): Conv2d(32, 32, kernel_size=(3, 1), stride=(1, 1), padding=(1, 0), groups=32, bias=False)
          (conv_t): Conv2d(32, 32, kernel_size=(1, 3), stride=(1, 1), padding=(0, 2), dilation=(1, 2), groups=32, bias=False)
          (bn): BatchNorm2d(32, eps=1e-05, momentum=0.1, affine=True, bias=True, track_running_stats=True)
          (act): Identity()
        )
        (2): SpeechDWConv(
          (conv_f): Conv2d(32, 32, kernel_size=(3, 1), stride=(1, 1), padding=(1, 0), groups=32, bias=False)
          (conv_t): Conv2d(32, 32, kernel_size=(1, 3), stride=(1, 1), padding=(0, 4), dilation=(1, 4), groups=32, bias=False)
          (bn): BatchNorm2d(32, eps=1e-05, momentum=0.1, affine=True, bias=True, track_running_stats=True)
          (act): Identity()
        )
        (3): SpeechDWConv(
          (conv_f): Conv2d(32, 32, kernel_size=(3, 1), stride=(1, 1), padding=(1, 0), groups=32, bias=False)
          (conv_t): Conv2d(32, 32, kernel_size=(1, 3), stride=(1, 1), padding=(0, 8), dilation=(1, 8), groups=32, bias=False)
          (bn): BatchNorm2d(32, eps=1e-05, momentum=0.1, affine=True, bias=True, track_running_stats=True)
          (act): Identity()
        )
        (4): SpeechDWConv(
          (conv_f): Conv2d(32, 32, kernel_size=(3, 1), stride=(1, 1), padding=(1, 0), groups=32, bias=False)
          (conv_t): Conv2d(32, 32, kernel_size=(1, 3), stride=(1, 1), padding=(0, 16), dilation=(1, 16), groups=32, bias=False)
          (bn): BatchNorm2d(32, eps=1e-05, momentum=0.1, affine=True, bias=True, track_running_stats=True)
          (act): Identity()
        )
        (5): SpeechDWConv(
          (conv_f): Conv2d(32, 32, kernel_size=(3, 1), stride=(1, 1), padding=(1, 0), groups=32, bias=False)
          (conv_t): Conv2d(32, 32, kernel_size=(1, 3), stride=(1, 1), padding=(0, 32), dilation=(1, 32), groups=32, bias=False)
          (bn): BatchNorm2d(32, eps=1e-05, momentum=0.1, affine=True, bias=True, track_running_stats=True)
          (act): Identity()
        )
        (6): SpeechDWConv(
          (conv_f): Conv2d(32, 32, kernel_size=(3, 1), stride=(1, 1), padding=(1, 0), groups=32, bias=False)
          (conv_t): Conv2d(32, 32, kernel_size=(1, 3), stride=(1, 1), padding=(0, 64), dilation=(1, 64), groups=32, bias=False)
          (bn): BatchNorm2d(32, eps=1e-05, momentum=0.1, affine=True, bias=True, track_running_stats=True)
          (act): Identity()
        )
      )
    )
  )
  (decoder3): UNetDecoder(
    (cmrf): CMRF(
      (pwconv1): Conv(
        (conv): Conv2d(768, 32, kernel_size=(1, 1), stride=(1, 1), bias=False)
        (bn): BatchNorm2d(32, eps=1e-05, momentum=0.1, affine=True, bias=True, track_running_stats=True)
        (act): GELU(approximate='none')
      )
      (pwconv2): Conv(
        (conv): Conv2d(128, 256, kernel_size=(1, 1), stride=(1, 1), bias=False)
        (bn): BatchNorm2d(256, eps=1e-05, momentum=0.1, affine=True, bias=True, track_running_stats=True)
        (act): GELU(approximate='none')
      )
      (m): ModuleList(
        (0): SpeechDWConv(
          (conv_f): Conv2d(16, 16, kernel_size=(3, 1), stride=(1, 1), padding=(1, 0), groups=16, bias=False)
          (conv_t): Conv2d(16, 16, kernel_size=(1, 3), stride=(1, 1), padding=(0, 1), groups=16, bias=False)
          (bn): BatchNorm2d(16, eps=1e-05, momentum=0.1, affine=True, bias=True, track_running_stats=True)
          (act): Identity()
        )
        (1): SpeechDWConv(
          (conv_f): Conv2d(16, 16, kernel_size=(3, 1), stride=(1, 1), padding=(1, 0), groups=16, bias=False)
          (conv_t): Conv2d(16, 16, kernel_size=(1, 3), stride=(1, 1), padding=(0, 2), dilation=(1, 2), groups=16, bias=False)
          (bn): BatchNorm2d(16, eps=1e-05, momentum=0.1, affine=True, bias=True, track_running_stats=True)
          (act): Identity()
        )
        (2): SpeechDWConv(
          (conv_f): Conv2d(16, 16, kernel_size=(3, 1), stride=(1, 1), padding=(1, 0), groups=16, bias=False)
          (conv_t): Conv2d(16, 16, kernel_size=(1, 3), stride=(1, 1), padding=(0, 4), dilation=(1, 4), groups=16, bias=False)
          (bn): BatchNorm2d(16, eps=1e-05, momentum=0.1, affine=True, bias=True, track_running_stats=True)
          (act): Identity()
        )
        (3): SpeechDWConv(
          (conv_f): Conv2d(16, 16, kernel_size=(3, 1), stride=(1, 1), padding=(1, 0), groups=16, bias=False)
          (conv_t): Conv2d(16, 16, kernel_size=(1, 3), stride=(1, 1), padding=(0, 8), dilation=(1, 8), groups=16, bias=False)
          (bn): BatchNorm2d(16, eps=1e-05, momentum=0.1, affine=True, bias=True, track_running_stats=True)
          (act): Identity()
        )
        (4): SpeechDWConv(
          (conv_f): Conv2d(16, 16, kernel_size=(3, 1), stride=(1, 1), padding=(1, 0), groups=16, bias=False)
          (conv_t): Conv2d(16, 16, kernel_size=(1, 3), stride=(1, 1), padding=(0, 16), dilation=(1, 16), groups=16, bias=False)
          (bn): BatchNorm2d(16, eps=1e-05, momentum=0.1, affine=True, bias=True, track_running_stats=True)
          (act): Identity()
        )
        (5): SpeechDWConv(
          (conv_f): Conv2d(16, 16, kernel_size=(3, 1), stride=(1, 1), padding=(1, 0), groups=16, bias=False)
          (conv_t): Conv2d(16, 16, kernel_size=(1, 3), stride=(1, 1), padding=(0, 32), dilation=(1, 32), groups=16, bias=False)
          (bn): BatchNorm2d(16, eps=1e-05, momentum=0.1, affine=True, bias=True, track_running_stats=True)
          (act): Identity()
        )
        (6): SpeechDWConv(
          (conv_f): Conv2d(16, 16, kernel_size=(3, 1), stride=(1, 1), padding=(1, 0), groups=16, bias=False)
          (conv_t): Conv2d(16, 16, kernel_size=(1, 3), stride=(1, 1), padding=(0, 64), dilation=(1, 64), groups=16, bias=False)
          (bn): BatchNorm2d(16, eps=1e-05, momentum=0.1, affine=True, bias=True, track_running_stats=True)
          (act): Identity()
        )
      )
    )
  )
  (decoder2): UNetDecoder(
    (cmrf): CMRF(
      (pwconv1): Conv(
        (conv): Conv2d(384, 16, kernel_size=(1, 1), stride=(1, 1), bias=False)
        (bn): BatchNorm2d(16, eps=1e-05, momentum=0.1, affine=True, bias=True, track_running_stats=True)
        (act): GELU(approximate='none')
      )
      (pwconv2): Conv(
        (conv): Conv2d(64, 128, kernel_size=(1, 1), stride=(1, 1), bias=False)
        (bn): BatchNorm2d(128, eps=1e-05, momentum=0.1, affine=True, bias=True, track_running_stats=True)
        (act): GELU(approximate='none')
      )
      (m): ModuleList(
        (0): SpeechDWConv(
          (conv_f): Conv2d(8, 8, kernel_size=(3, 1), stride=(1, 1), padding=(1, 0), groups=8, bias=False)
          (conv_t): Conv2d(8, 8, kernel_size=(1, 3), stride=(1, 1), padding=(0, 1), groups=8, bias=False)
          (bn): BatchNorm2d(8, eps=1e-05, momentum=0.1, affine=True, bias=True, track_running_stats=True)
          (act): Identity()
        )
        (1): SpeechDWConv(
          (conv_f): Conv2d(8, 8, kernel_size=(3, 1), stride=(1, 1), padding=(1, 0), groups=8, bias=False)
          (conv_t): Conv2d(8, 8, kernel_size=(1, 3), stride=(1, 1), padding=(0, 2), dilation=(1, 2), groups=8, bias=False)
          (bn): BatchNorm2d(8, eps=1e-05, momentum=0.1, affine=True, bias=True, track_running_stats=True)
          (act): Identity()
        )
        (2): SpeechDWConv(
          (conv_f): Conv2d(8, 8, kernel_size=(3, 1), stride=(1, 1), padding=(1, 0), groups=8, bias=False)
          (conv_t): Conv2d(8, 8, kernel_size=(1, 3), stride=(1, 1), padding=(0, 4), dilation=(1, 4), groups=8, bias=False)
          (bn): BatchNorm2d(8, eps=1e-05, momentum=0.1, affine=True, bias=True, track_running_stats=True)
          (act): Identity()
        )
        (3): SpeechDWConv(
          (conv_f): Conv2d(8, 8, kernel_size=(3, 1), stride=(1, 1), padding=(1, 0), groups=8, bias=False)
          (conv_t): Conv2d(8, 8, kernel_size=(1, 3), stride=(1, 1), padding=(0, 8), dilation=(1, 8), groups=8, bias=False)
          (bn): BatchNorm2d(8, eps=1e-05, momentum=0.1, affine=True, bias=True, track_running_stats=True)
          (act): Identity()
        )
        (4): SpeechDWConv(
          (conv_f): Conv2d(8, 8, kernel_size=(3, 1), stride=(1, 1), padding=(1, 0), groups=8, bias=False)
          (conv_t): Conv2d(8, 8, kernel_size=(1, 3), stride=(1, 1), padding=(0, 16), dilation=(1, 16), groups=8, bias=False)
          (bn): BatchNorm2d(8, eps=1e-05, momentum=0.1, affine=True, bias=True, track_running_stats=True)
          (act): Identity()
        )
        (5): SpeechDWConv(
          (conv_f): Conv2d(8, 8, kernel_size=(3, 1), stride=(1, 1), padding=(1, 0), groups=8, bias=False)
          (conv_t): Conv2d(8, 8, kernel_size=(1, 3), stride=(1, 1), padding=(0, 32), dilation=(1, 32), groups=8, bias=False)
          (bn): BatchNorm2d(8, eps=1e-05, momentum=0.1, affine=True, bias=True, track_running_stats=True)
          (act): Identity()
        )
        (6): SpeechDWConv(
          (conv_f): Conv2d(8, 8, kernel_size=(3, 1), stride=(1, 1), padding=(1, 0), groups=8, bias=False)
          (conv_t): Conv2d(8, 8, kernel_size=(1, 3), stride=(1, 1), padding=(0, 64), dilation=(1, 64), groups=8, bias=False)
          (bn): BatchNorm2d(8, eps=1e-05, momentum=0.1, affine=True, bias=True, track_running_stats=True)
          (act): Identity()
        )
      )
    )
  )
  (decoder1): UNetDecoder(
    (cmrf): CMRF(
      (pwconv1): Conv(
        (conv): Conv2d(192, 8, kernel_size=(1, 1), stride=(1, 1), bias=False)
        (bn): BatchNorm2d(8, eps=1e-05, momentum=0.1, affine=True, bias=True, track_running_stats=True)
        (act): GELU(approximate='none')
      )
      (pwconv2): Conv(
        (conv): Conv2d(32, 64, kernel_size=(1, 1), stride=(1, 1), bias=False)
        (bn): BatchNorm2d(64, eps=1e-05, momentum=0.1, affine=True, bias=True, track_running_stats=True)
        (act): GELU(approximate='none')
      )
      (m): ModuleList(
        (0): SpeechDWConv(
          (conv_f): Conv2d(4, 4, kernel_size=(3, 1), stride=(1, 1), padding=(1, 0), groups=4, bias=False)
          (conv_t): Conv2d(4, 4, kernel_size=(1, 3), stride=(1, 1), padding=(0, 1), groups=4, bias=False)
          (bn): BatchNorm2d(4, eps=1e-05, momentum=0.1, affine=True, bias=True, track_running_stats=True)
          (act): Identity()
        )
        (1): SpeechDWConv(
          (conv_f): Conv2d(4, 4, kernel_size=(3, 1), stride=(1, 1), padding=(1, 0), groups=4, bias=False)
          (conv_t): Conv2d(4, 4, kernel_size=(1, 3), stride=(1, 1), padding=(0, 2), dilation=(1, 2), groups=4, bias=False)
          (bn): BatchNorm2d(4, eps=1e-05, momentum=0.1, affine=True, bias=True, track_running_stats=True)
          (act): Identity()
        )
        (2): SpeechDWConv(
          (conv_f): Conv2d(4, 4, kernel_size=(3, 1), stride=(1, 1), padding=(1, 0), groups=4, bias=False)
          (conv_t): Conv2d(4, 4, kernel_size=(1, 3), stride=(1, 1), padding=(0, 4), dilation=(1, 4), groups=4, bias=False)
          (bn): BatchNorm2d(4, eps=1e-05, momentum=0.1, affine=True, bias=True, track_running_stats=True)
          (act): Identity()
        )
        (3): SpeechDWConv(
          (conv_f): Conv2d(4, 4, kernel_size=(3, 1), stride=(1, 1), padding=(1, 0), groups=4, bias=False)
          (conv_t): Conv2d(4, 4, kernel_size=(1, 3), stride=(1, 1), padding=(0, 8), dilation=(1, 8), groups=4, bias=False)
          (bn): BatchNorm2d(4, eps=1e-05, momentum=0.1, affine=True, bias=True, track_running_stats=True)
          (act): Identity()
        )
        (4): SpeechDWConv(
          (conv_f): Conv2d(4, 4, kernel_size=(3, 1), stride=(1, 1), padding=(1, 0), groups=4, bias=False)
          (conv_t): Conv2d(4, 4, kernel_size=(1, 3), stride=(1, 1), padding=(0, 16), dilation=(1, 16), groups=4, bias=False)
          (bn): BatchNorm2d(4, eps=1e-05, momentum=0.1, affine=True, bias=True, track_running_stats=True)
          (act): Identity()
        )
        (5): SpeechDWConv(
          (conv_f): Conv2d(4, 4, kernel_size=(3, 1), stride=(1, 1), padding=(1, 0), groups=4, bias=False)
          (conv_t): Conv2d(4, 4, kernel_size=(1, 3), stride=(1, 1), padding=(0, 32), dilation=(1, 32), groups=4, bias=False)
          (bn): BatchNorm2d(4, eps=1e-05, momentum=0.1, affine=True, bias=True, track_running_stats=True)
          (act): Identity()
        )
        (6): SpeechDWConv(
          (conv_f): Conv2d(4, 4, kernel_size=(3, 1), stride=(1, 1), padding=(1, 0), groups=4, bias=False)
          (conv_t): Conv2d(4, 4, kernel_size=(1, 3), stride=(1, 1), padding=(0, 64), dilation=(1, 64), groups=4, bias=False)
          (bn): BatchNorm2d(4, eps=1e-05, momentum=0.1, affine=True, bias=True, track_running_stats=True)
          (act): Identity()
        )
      )
    )
  )
  (tact1): TACT(
    (proj): Identity()
    (conv_f): Conv2d(64, 64, kernel_size=(3, 3), stride=(1, 1), padding=(1, 1), groups=64, bias=False)
    (conv_t_freq): Conv2d(64, 64, kernel_size=(32, 1), stride=(1, 1), padding=same, groups=64, bias=False)
    (conv_t_time): Conv2d(64, 64, kernel_size=(1, 32), stride=(1, 1), padding=same, groups=64, bias=False)
    (act): GELU(approximate='none')
    (channel_mix): Conv2d(64, 64, kernel_size=(1, 1), stride=(1, 1), bias=False)
    (bn): BatchNorm2d(64, eps=1e-05, momentum=0.1, affine=True, bias=True, track_running_stats=True)
    (gate_activation): Sigmoid()
  )
  (prism): SpectralPrism(
    (refractors): ModuleList(
      (0): Sequential(
        (0): Conv2d(64, 16, kernel_size=(3, 3), stride=(1, 1), padding=(1, 4), dilation=(1, 4), bias=False)
        (1): InstanceNorm2d(16, eps=1e-05, momentum=0.1, affine=False, bias=False, track_running_stats=False)
        (2): ELU(alpha=1.0, inplace=True)
      )
      (1): Sequential(
        (0): Conv2d(64, 16, kernel_size=(3, 3), stride=(1, 1), padding=(1, 8), dilation=(1, 8), bias=False)
        (1): InstanceNorm2d(16, eps=1e-05, momentum=0.1, affine=False, bias=False, track_running_stats=False)
        (2): ELU(alpha=1.0, inplace=True)
      )
      (2): Sequential(
        (0): Conv2d(64, 16, kernel_size=(3, 3), stride=(1, 1), padding=(1, 16), dilation=(1, 16), bias=False)
        (1): InstanceNorm2d(16, eps=1e-05, momentum=0.1, affine=False, bias=False, track_running_stats=False)
        (2): ELU(alpha=1.0, inplace=True)
      )
      (3): Sequential(
        (0): Conv2d(64, 16, kernel_size=(3, 3), stride=(1, 1), padding=(1, 32), dilation=(1, 32), bias=False)
        (1): InstanceNorm2d(16, eps=1e-05, momentum=0.1, affine=False, bias=False, track_running_stats=False)
        (2): ELU(alpha=1.0, inplace=True)
      )
    )
  )
  (mask_conv): Conv2d(128, 2, kernel_size=(1, 1), stride=(1, 1))
  (istft): ConviSTFT()
)
2026-07-08 12:41:19 [/home/computergeek/TinyU-Net/libs/trainer_unet_tse_steplr_clip.py:182 - INFO ] Loading model to GPUs:(0,), #param: 0.62M, Complexity: 2.69 GMAC/s
2026-07-08 12:41:19 [/home/computergeek/TinyU-Net/libs/trainer_unet_tse_steplr_clip.py:188 - INFO ] Gradient clipping by 1.0, default L2
2026-07-08 12:41:20 [/home/computergeek/TinyU-Net/libs/trainer_unet_tse_steplr_clip.py:257 - INFO ] Set eval mode...
…
